booster_deploy-main/tasks/base_walk/models/base_walk.pt (torch, 263398 bytes, 8 tensors)

weight f4 [256, 47]
00000000: 11c7 46be df79 f23e 53bb 343e 1a70 77bd
00000010: d5d0 99bd a8ec 9abd d189 0bba 6a0b 07bf
00000020: a573 233d 5d2e 2b3d 4375 0b3e 4888 a83d
00000030: 98c0 47be 114b 863e c3d8 993e 0d90 cd3c
00000040: 6737 b13d 375b bfbe b175 35be 135d b03e
00000050: 2571 5d3e e7e2 8b3e cdc7 b3bd 5509 583c
00000060: 1ed1 9c3d 7fb1 1e3e c697 cabd 84db dcbc
00000070: a13e 233d 2fc3 08be 646a 03bd c473 813e
00000080: 90be 6fbd 8aa0 873d c12d 1e3c 1ce1 d33d
00000090: 60fa 1ebd 5025 60bd 0708 543e 4b41 c83e
000000a0: ee37 8d3c a2db 173e 9b8c 493e 429e 61be
000000b0: 5b03 8a3d a4fe f4bd 82a6 8fbe 5d31 4cbe
000000c0: 7566 863e cc8f ab3d f5b5 fabd c348 89bd
000000d0: 43cb c73c 76e6 dbbd 2c82 c53d e78d 63bc
000000e0: ecdd 44be bb3c 923e bdd4 29bf 2b53 00be
000000f0: 4a80 dbbe 2c4e aebd d406 bdbd f0d3 00be
00000100: 7ffa 45be 95f0 563b 63cc e8bc e958 2dbe
00000110: 217d 8a3e 2363 17bd 753d 5cbe 54ae a93e
00000120: 344d 9bbe 8e14 04be 2955 2a3d 1f8a cdbd
00000130: 61ad dcbd 7fb2 2dbf dd7b a23e e9da 0cbd
00000140: 63db 82bd 1ca7 c33d fb3b 253e 6670 95bd
00000150: dcfc 943c bbaa 91bd 6bd5 9dbe d1ff 553e
00000160: a200 1c3d b00e bbbc 9d6f 89bd 5a4a 413e
00000170: f563 a0bd 4304 d6bd fb3d 073f c316 15be
00000180: 2f22 693d 0356 823d 4157 913e 9236 213e
00000190: e527 3b3e e6ab 1fbe a1fb c73d e135 54bd
000001a0: eee2 44be 5b01 96bd 760b bd3e bf21 25be
000001b0: 0f17 f8bd 006a 2abe 6e84 0d3e e5c6 14be
000001c0: e408 19be 3b5e afbe 54de 233e 1727 06bd
000001d0: 3b14 2e3e 0464 1c3f 8202 843f 8c5a d9bd
000001e0: 296d 173e 9c16 21be 94bf 9d3d bc4a fe3e
000001f0: 99a0 063e f350 5e3c a5e2 cd3c 9d77 57bd
00000200: 91b9 943d 0d11 653e 51c4 313d 494d 943c
00000210: cf55 c3bd 1597 ee3e 5124 adbd f9bb 983d
00000220: a496 e23d 5fbc 81bd fe30 063e 3e9f 7c3c
00000230: 1b8c a7bd 2c9e dfbd 0af4 3e3c 7e4a fc3d
00000240: 48c2 163e 83d3 a0bc 2bf8 c23d 0a01 09be
00000250: a73f da3d 59f6 29bd 2101 013d 78d7 1cbe
00000260: 7044 3ebf a302 25be 0fb2 9b3d e02d 653e
00000270: c683 6abe 4194 9b3d 5cde 333d 6621 0fbf
00000280: ab34 b9be cfa0 e4be f356 843d 3a7c 82bd
00000290: aaca 32be 37b0 a5bc 0d4d 66be a4bf ab3e
000002a0: f952 96be 8d63 b6bd 7490 b63d 5366 423d
000002b0: e3cf 5bbd bf54 ebbc f1d4 b23d 476d 483a
000002c0: 90ad a33e 1d51 303e 6e1a 723e 2306 e73e
000002d0: 3495 ce3e 815a 48be 6f28 52be c305 ebbc
000002e0: 513e af3d d26e 8b3e fbff 04be 6b95 113d
000002f0: cb4f e3bd 8467 d03e eade b0bc a077 a1bd
00000300: adfd 9ebd 4609 ebbb 74df a93d 932e 8ebe
00000310: 9204 d2be 754b 14be 30ee 1bbd a178 c93e
00000320: a5f6 bf3e c617 2dbd 6e70 a33e 1a86 e9bc
00000330: 724d 873b 4afc 883d 895a 1b3f 94e6 1a3f
00000340: 9a9b a3be 26d4 853c aec6 7cbc 7db8 c03d
00000350: d877 483e 46d6 12bd c83d 313e 89ff 6bbb
00000360: 6056 e63d dbd3 3abd e2dd a0bd 2a64 6a3e
00000370: 645b 63be 7440 53bc f512 a33c 49ab 81bd
00000380: 2ec4 3bbe 3f71 06be a462 08bc 2e62 173e
00000390: 702e a7be 6590 89be 39fe e23d c944 003e
000003a0: 3b32 4c3e cae1 34bd a057 3dbd 2e50 69be
000003b0: f6e4 9e3e dbcd 2b3e 5871 d23c 99ef 723d
000003c0: 1359 c7bc 5206 8c3b 45b3 093b 4a89 7e3d
000003d0: b6dd 1a3d 8c57 eebb bf9a ebbe 9cda 283f
000003e0: a474 1a3d b454 a9bd cd0a ea3d d67f 2a3e
000003f0: a037 e73e b72c a23d 458c b2be c0e8 8dbe
-0.19411875 0.47358605 0.17649584 -0.060409643 -0.07510535 -0.0756467 -0.00053229654 -0.5275179
0.03990521 0.041792262 0.1361895 0.082291186 -0.19507062 0.26229146 0.3004819 0.025093103
0.08653145 -0.3737428 -0.17720677 0.3444601 0.21625192 0.2732155 -0.08778343 0.013185819
0.076570734 0.15497397 -0.0989223 -0.026960142 0.03985465 -0.13355707 -0.032083884 0.25283635
-0.058531344 0.06622417 0.009654463 0.103456706 -0.038812995 -0.054723084 0.20706187 0.39112315
0.017238583 0.14829877 0.19682543 -0.22033027 0.06738921 -0.11962631 -0.28056723 -0.19940706
0.26250044 0.083770365 -0.12241737 -0.06703331 0.024388915 -0.10737316 0.09643969 -0.013888813
-0.19225281 0.2856196 -0.6634024 -0.12531726 -0.42871314 -0.08511004 -0.09229818 -0.12580848
-0.19333838 0.0032797207 -0.028417772 -0.16928448 0.2704859 -0.03695978 -0.21507819 0.33140814
-0.3033234 -0.12898466 0.04158512 -0.1003611 -0.10775257 -0.6785049 0.31735125 -0.034388456
-0.06389501 0.09553358 0.16136162 -0.07296829 0.018186979 -0.071126424 -0.30826887 0.20898367
0.03808654 -0.022834152 -0.06710742 0.18876019 -0.07831565 -0.104500316 0.5282895 -0.14559464
0.056917366 0.06364062 0.28386882 0.15743473 0.18276937 -0.15592918 0.09764791 -0.051809195
-0.19227192 -0.07324477 0.36922807 -0.16126154 -0.12113773 -0.16641998 0.13820049 -0.14528997
-0.14944798 -0.3425158 0.1600278 -0.032752123 0.16999905 0.6109011 1.0313265 -0.106129736
0.14787735 -0.15731281 0.07702556 0.49666393 0.131472 0.0135691045 0.025132487 -0.052604306
0.072619565 0.22369786 0.043400113 0.018103259 -0.09537851 0.4659964 -0.084541924 0.07457728
0.11063889 -0.06334757 0.13104627 0.015418826 -0.0818102 -0.10918841 0.011654863 0.12318896
0.1472255 -0.019632107 0.095199905 -0.13379303 0.10656672 -0.0414947 0.031495217 -0.1531657
-0.7432318 -0.16114287 0.07602321 0.22380781 -0.2290183 0.075966366 0.04391323 -0.55910337
-0.36172995 -0.44653937 0.06461897 -0.063713506 -0.17460123 -0.020225627 -0.2249033 0.33544648
-0.29360178 -0.089057066 0.08914271 0.047460865 -0.053665053 -0.028726934 0.087320216 0.0007645678
0.31968355 0.17218442 0.23642895 0.4512187 0.40348208 -0.19565775 -0.20523237 -0.02868927
0.08556808 0.27232987 -0.12988274 0.035542887 -0.11099204 0.40703976 -0.021590669 -0.07884145
-0.077632286 -0.0071727363 0.082945734 -0.27769908 -0.41019112 -0.1448191 -0.03806895 0.39349845
0.37492862 -0.042259 0.31921715 -0.028506327 0.0041291052 0.06688745 0.6068502 0.60508084
-0.31954652 0.016336512 -0.015428228 0.09410188 0.19576967 -0.03584888 0.17308724 -0.0036010465
0.112469435 -0.045612197 -0.07854821 0.22889772 -0.22202832 -0.012893785 0.0199065 -0.06331498
-0.18336555 -0.13129137 -0.008324299 0.14783546 -0.32652617 -0.26867977 0.110836454 0.1252624
0.19941036 -0.04416064 -0.046226144 -0.22784492 0.31034058 0.16777746 0.025688812 0.05931053
-0.024334466 0.0042732144 0.0021011394 0.062142648 0.037809096 -0.00727362 -0.460165 0.6595857
0.037708893 -0.08268109 0.11427841 0.16650328 0.45159626 0.07918685 -0.34872642 -0.27716637

bias f4 [256]
00000000: c53b 19be a860 ca3d f5cd e3bd 4319 09bd
00000010: 971c d4bd 7c6c 263d 8344 793b 76b2 3dbd
00000020: da8b a4bb 5cba 283e f000 bfbc e84c 933c
00000030: f4b3 2bbe 76ea 03be 1c83 b23c 707b e1bd
00000040: 3494 28bd 8de3 5ebd aa20 093e 68d7 4abd
00000050: 6721 33be e98c a13d 5231 0cbe 930d b93b
00000060: 7b94 18bd fbf7 c2bd 8691 633d 118e 9e3d
00000070: 99e5 cfbd 2b96 3fbd 1095 cebd dfb7 db3b
00000080: 6416 a0bb bd8b e0bd 3a09 213d e732 52be
00000090: da5d 12be e718 02be baa1 99bd 14fc 6fbe
000000a0: 02e2 1fbe e480 b3bd 99e1 a7bd 468e 64bd
000000b0: 1567 e5bd f3c7 fe3d e0f2 a1be b1f4 173c
000000c0: 5723 59be 1b94 f13d 5a27 3a3e 7529 17be
000000d0: 669f 3cbe 0dd6 12bd c3bf 66bc 2672 5ebc
000000e0: 2baf a3bd 8eab 2dbe 561e 34bd 0781 493e
000000f0: da62 1e3d f2c4 423d 7517 f9bd 5356 36bd
00000100: 64b2 9ebd 90e1 85be be59 6d3d e769 10be
00000110: c250 a53d 5191 6939 ba0c 19bd 4852 39bc
00000120: da71 24bd 3b3c edbd d61f e1bd 8f44 27be
00000130: 923d cabd 1061 70bc c773 3ebc 3aaa 76be
00000140: 3422 29be 1219 17be 921c 44bd a66d 0b3d
00000150: 2216 9fbd 1c1e 2e3d 399f 4d3e 9750 f1bd
00000160: 2908 273d 2fca bebc 6fa2 9c3c 6b21 11be
00000170: 3d1d c4bd 2dd3 1fbe 94ec f73d 6e46 d9bd
00000180: edf8 f5bd 4ded 1f3e 196e 82bd b8db 313e
00000190: c2ec 3dbe 132e b3bd d78b 6ebd d599 40be
000001a0: 8ced 4dbe fc8b f93d 662e 6cbd 9d5a bbbc
000001b0: 9916 cb3b b94d 6c3e b7fc 08be 9e74 45bd
000001c0: 935c d0bd 0c56 edbc f158 cd3d 1ce9 973c
000001d0: ce78 0dbe 465a 913d f7c9 a63c d061 72bd
000001e0: c203 633e 89d3 36be 1ff4 8a3d 2691 2a3e
000001f0: 25d3 a43d 8cd0 18bd 8310 65bc 3ec8 e1bd
00000200: 6400 e93b 4836 ab3d 7a05 5fbd df50 f53c
00000210: 8834 22be 2b0e 5dbd 8eed 1d3d a471 0b3d
00000220: f585 e03d 9dea e4bd 2a9b c23d 480f 00be
00000230: 32fa 7a3d 4ba2 74bd 9e85 1cbe 203f 69be
00000240: 3e8e 4cbe 13bc e6bd 56e8 8cbe 3b19 d93d
00000250: 262e 57bc 872f ff3d 484b ed3d d169 41bd
00000260: bb3b dcbd 6f9b 503e 90a9 efbd e4d9 dcbd
00000270: d967 09bd 0185 b1bd df44 21be 39a2 863e
00000280: 4c77 b93c 259b 3d3d 6158 31be 6e10 f3bd
00000290: da86 31be fd20 a73d f586 87be 2309 0f3d
000002a0: fdb0 f6bd c300 f33b 8c73 c8bd 4bef bd3d
000002b0: fa6e 8bbd 76dc 493d dbcf 3abe 2858 6cbc
000002c0: 54b6 b4bd da68 e6bd 4a81 a43d 1ca2 a3bc
000002d0: 85bf 193d 99d4 37be 7fb8 e7bd d84c 86bd
000002e0: 586d a7bd 4476 f5bc 4e4f a53c 91af 1c3c
000002f0: 73b0 153e f3be 9dbd 9908 4abd b2d4 8dbe
00000300: b768 50bb 2669 b0bd 9f7c e0bd 3102 8cbe
00000310: 2ca7 8fbd a56a d8bd da1c 24bc d2aa b73c
00000320: 20ae e3bd 30a9 b8bd 7e5a 8bbd c795 e73d
00000330: 8615 c3bd 4abc 27be 8663 173e c9ed bfbc
00000340: 8c26 cabc 78e5 b63b 99fe f1bb a6bc af3d
00000350: 11c6 1abd efaa a93d 8b3a 9b3d e341 5a3c
00000360: 403c bebd 8046 863d b4e5 763b 3a90 48bd
00000370: 0df0 75bd aadf 0abe c0df 32be 6437 07be
00000380: c1bc 72be 08f6 b23d 9272 7c3b 5b01 1ebe
00000390: 1812 6b3d 4253 713e c719 c53d 8969 023e
000003a0: 0df7 a23d adf2 1bbe 7684 2c3e 4b45 1ebe
000003b0: bd1e e6bd 583d 263e 383a aebc 9cf0 77bd
000003c0: 7359 82bd fb46 32be f9b8 69bc 7b24 5fbe
000003d0: 2d28 d5bc 88c9 563c 03e3 14bd 011a 2f3d
000003e0: 1acf af3d 8539 3c3e be15 3bbe 0c0f 9cbb
000003f0: 7a2d 84bd 1e95 93bc 2350 5bbe b3e6 c1bd
-0.14964207 0.09881717 -0.111232676 -0.033471357 -0.103570156 0.040630803 0.003803522 -0.04631277
-0.0050215544 0.1647734 -0.023315877 0.017981008 -0.16767865 -0.12882408 0.021791033 -0.11009872
-0.041156963 -0.054416228 0.13391367 -0.049521834 -0.1749321 0.078882046 -0.13690689 0.00564737
-0.037250977 -0.09519955 0.055558704 0.07741941 -0.10151214 -0.04677407 -0.10087025 0.0067052688
-0.0048854817 -0.10964153 0.03931544 -0.2052723 -0.14293614 -0.12704812 -0.0750155 -0.23436004
-0.15613559 -0.08764818 -0.08197326 -0.055799745 -0.11201302 0.12440481 -0.3163061 0.009274648
-0.21204887 0.11795827 0.18179074 -0.14761908 -0.1842018 -0.035848666 -0.0140838055 -0.01357702
-0.07992395 -0.16959974 -0.043974243 0.19678126 0.03866849 0.047551103 -0.12162677 -0.04451592
-0.07748869 -0.26148653 0.057946913 -0.14102899 0.08072044 0.00022274746 -0.037365653 -0.011311121
-0.04014764 -0.11583754 -0.109924 -0.16334747 -0.09875025 -0.014671579 -0.011624283 -0.24088374
-0.16516954 -0.14755657 -0.04787881 0.034040116 -0.077678934 0.042509183 0.2008027 -0.117829494
0.040779267 -0.023289768 0.019120423 -0.14172904 -0.09575889 -0.15607901 0.121056706 -0.106091365
-0.120103694 0.15617867 -0.06368656 0.17368972 -0.18547347 -0.08749022 -0.05823883 -0.18808682
-0.20110148 0.12184903 -0.057661436 -0.022870356 0.006197762 0.23076524 -0.13377653 -0.048206918
-0.10173907 -0.028971694 0.1002673 0.018543772 -0.13815615 0.070972964 0.020359976 -0.059175313
0.22169402 -0.17854132 0.06784844 0.16656932 0.08048085 -0.03730826 -0.0139809875 -0.11024521
0.0071106423 0.08359963 -0.054448582 0.029945789 -0.15840352 -0.05396859 0.038556628 0.034043923
0.1096305 -0.111775614 0.095022514 -0.1250583 0.06127376 -0.059725087 -0.15285346 -0.22777987
-0.19976136 -0.11266341 -0.27521008 0.106005155 -0.013133561 0.12460237 0.115866244 -0.047220055
-0.1075358 0.20371793 -0.11702263 -0.10783747 -0.033546302 -0.086679466 -0.15748928 0.2629564
0.022639893 0.046290535 -0.1731887 -0.11868368 -0.17336598 0.08160589 -0.26470152 0.034920823
-0.120454766 0.0074158623 -0.09787664 0.09274157 -0.068082765 0.049282514 -0.18243353 -0.014425315
-0.08823839 -0.112504676 0.080324724 -0.01997476 0.037536163 -0.17952193 -0.11314487 -0.065576255
-0.081751525 -0.02996362 0.020179417 0.009563343 0.14618091 -0.07702436 -0.049324606 -0.27701336
-0.0031800696 -0.086138055 -0.109612696 -0.27345422 -0.070143074 -0.10567216 -0.010016644 0.02242032
-0.11117196 -0.09016645 -0.068043694 0.11307865 -0.0952559 -0.1638042 0.14784059 -0.023428814
-0.024676584 0.005581554 -0.0073850867 0.08580904 -0.037786547 0.08284556 0.075795256 0.013321373
-0.092888355 0.065564156 0.0037673535 -0.04896567 -0.060043383 -0.13561884 -0.17468166 -0.13204724
-0.23704816 0.08738333 0.0038520438 -0.15430205 0.057390302 0.23566917 0.09624057 0.12735571
0.079572774 -0.15229292 0.16847405 -0.1545612 -0.112363316 0.16234338 -0.021267995 -0.060532197
-0.06364717 -0.1740989 -0.014265292 -0.2179126 -0.026020134 0.013109572 -0.036349308 0.04274941
0.08584423 0.18381317 -0.18270013 -0.004762536 -0.064539865 -0.01801544 -0.21417288 -0.094678305

weight f4 [128, 256]
00000000: 4c73 5f3d 117f 803d 8fb1 ef3c 8045 5c3c
00000010: d18e 293c 2f91 f63c 2c7c fabd e552 f6bd
00000020: 493a 37be 35fd 233d 70a8 f8bc cffc 9a3a
00000030: 5f57 bebd 1482 80bc 92ea 81bc c38f 4f3e
00000040: 9678 31be 886a 613d cc96 023d 2933 193d
00000050: f581 003c 0d94 c2bd c805 febd e84c 69bd
00000060: a8ae 153d 7bb0 283e f91e 583d 36f8 94bc
00000070: b8e1 72bd ff7e 143d 8de3 a43d ac6f b6bd
00000080: 7663 223d b927 37bc 16b4 2c3e 95c4 9b3e
00000090: a0ea 42bd 81df 12be 9725 383d ae62 8bbd
000000a0: e02a 1ebd 29d1 b43d cbc6 9b3c dd0a 36bd
000000b0: 4bc0 d9bd 9f00 833d 1f88 13bd 9ef4 2b3d
000000c0: 2086 abbd aa54 3e3d 3730 a1bd f6d4 b6bd
000000d0: f0b3 a03e 1b23 44bd 3d42 14bd c11b 4fbd
000000e0: 5841 efbd adc3 06be cf58 42bd db39 fa3d
000000f0: 863e 613c 9252 873d 411d 923d a01a 73bd
00000100: 26e8 33be 60ff 393e 87c3 9fbd 501c 753c
00000110: a291 96bd eb04 a73d fc48 003d 298c d93c
00000120: 1104 433d 0d80 e3bc 0385 1a3d 488e ca3c
00000130: a7bd d13c 5988 05bd b211 bdbd 8189 44be
00000140: 641b 42be 866f 43bd 295b 9a3d 3fa6 1ebd
00000150: 9228 6a3d d8e6 653d ee73 603d e00a f13b
00000160: fb6d 7cbd ad84 3a3d 027f 483d b685 2d3b
00000170: 5743 873d dddc 383d 99b9 31bc 623c 813d
00000180: 79de eebb 93e6 f23d cf53 2a3d be5a 063e
00000190: a9e6 333d c11c d03d 0e68 053e 6602 1fbe
000001a0: 3098 8c3d 335e b3bd aaf7 4a3d 7795 3abd
000001b0: 5a75 c73d c14d 263e 94b6 403e dbf2 dcbb
000001c0: 3840 8eba b953 603d 8d13 173d b9c7 ba3d
000001d0: 19b6 df3d 6362 64bc 27b5 94bd 4817 47be
000001e0: f5ea 82bd 0190 183d 885e 99bc 4a3b 8cbb
000001f0: 0ed7 083e f9a9 e33c 3e75 9bbd e763 a63d
00000200: 2172 ddbd a64f 16bd 94d6 353c e8c1 8b3d
00000210: c4c4 6e3d 5964 b23d 630a 8f3d 597b e43d
00000220: 400c 183d 178f 943d 9482 9c3d 7e97 43be
00000230: 8068 f2bd 8584 2e3d 095b 6abd cf0b 743d
00000240: 9a4a 233d 8ceb a7bb 04dd 0b3e 8fac c23d
00000250: 2305 343d 354f 16bd 51d0 443e 5632 1d3e
00000260: 6072 6ebd f8df 1ebc 7a85 213d 8aa5 db3d
00000270: 5c45 85bd 41ff 803e 0a36 b5bc f163 36bd
00000280: 2c1d e5bc 2a92 003c 8615 4fbc f16a a8bd
00000290: 8b61 7d3c 0bc4 53bd 9a87 0e3d 4e84 393d
000002a0: 7715 df3d 4df9 41bd f891 abbc cfbc 2c3e
000002b0: 9c2e 073d 348e ce3d 33e0 c4bd 42a3 263d
000002c0: 6e48 06bc b195 08be eed8 013d 5683 a8bd
000002d0: 48e9 c7bc fe5a 9e3d 1249 36bd 88a0 42bc
000002e0: 3bea 4cbd ae63 a9bd 76fd 7cbd 510a bb3c
000002f0: 189e 26bd 4a38 a73d 3c9d 8c3d c787 3d3d
00000300: b652 fd3d 5f8d 563c 6f12 df3d b15f 363c
00000310: 33d1 283d 53b6 1c3e c9b9 88bd ce14 35be
00000320: 1414 443e ba77 07bd 7b9a 9abd 47f1 b8bd
00000330: 22e4 46bd 9b1d 02bd 3748 1a3c f711 843d
00000340: 411b 88bc 0585 8abd 137b cf3d 2444 f3bc
00000350: 4784 a93d 30f0 5d3c 49e7 d4bd 0f87 9e3d
00000360: 34f3 163e 7f27 ef3c b06b 403e fe4f 2d3d
00000370: 8d95 29be b6ba 553e 0c11 fcbc 944d 593d
00000380: 1851 e23a 7090 42bd 6305 593d 63ac a5bd
00000390: 4675 2bbe 8543 78bd 3aa7 483d d547 ba3b
000003a0: abeb 993c 24d4 093d 8491 8ebb 3cc0 62bc
000003b0: e317 0ebd e5e1 a23d 0cd0 e93d 9d4d 60bd
000003c0: 7c7b 0abd fff3 92bc 67c9 823c ae5d b43c
000003d0: 4ee3 63bb 6cf1 1d3c a706 de3d 6522 64bd
000003e0: fd93 92bd 5b81 2b3a 7d36 e13d 7018 ccbd
000003f0: 01be 89be 5ac1 86bd 6386 dfbd a731 90bd
0.054553315 0.06274236 0.029259471 0.0134443045 0.0103489915 0.030098526 -0.12230715 -0.120275296
-0.17893328 0.0400364 -0.030353755 0.001182461 -0.092940085 -0.015687026 -0.015858922 0.20269684
-0.17331156 0.055033237 0.031882092 0.037402306 0.007843484 -0.09500895 -0.124034464 -0.05695811
0.03654352 0.16473572 0.052763913 -0.018184762 -0.059297293 0.036253925 0.08051214 -0.089080185
0.039645635 -0.011178904 0.16865572 0.30423418 -0.047587037 -0.14343072 0.044957723 -0.06805931
-0.038615108 0.08828957 0.01901569 -0.044443954 -0.1063238 0.06396603 -0.036018487 0.041981332
-0.08375192 0.04646746 -0.078705244 -0.08927338 0.3138728 -0.04788504 -0.036195982 -0.050563578
-0.11682385 -0.13160582 -0.047447976 0.12218066 0.013747817 0.06607546 0.07134486 -0.059351563
-0.17569026 0.18163824 -0.07800966 0.0149603635 -0.07351996 0.08155235 0.031319603 0.026556091
0.0476113 -0.02777102 0.037724506 0.024726048 0.025603129 -0.032600734 -0.09231891 -0.19193079
-0.18955761 -0.04771378 0.07536919 -0.038732763 0.057167597 0.056128353 0.05479806 0.0073560327
-0.061628323 0.045536686 0.04894925 0.0026477403 0.06604641 0.045132507 -0.010847473 0.06310345
-0.0072897044 0.11860385 0.041583832 0.13120553 0.043921147 0.10161734 0.13027975 -0.15528259
0.06864965 -0.087582015 0.049552597 -0.045552697 0.0973918 0.16240598 0.18819648 -0.006742818
-0.0010852879 0.054767344 0.03688388 0.09120125 0.10923404 -0.013939473 -0.072611146 -0.19442475
-0.06392471 0.037246708 -0.018721834 -0.0042795287 0.13363287 0.02779101 -0.075907215 0.081245236
-0.10812784 -0.036697052 0.011098523 0.06824094 0.05829312 0.08710546 0.06984403 0.11156339
0.037121058 0.07253855 0.07642093 -0.19100758 -0.11836338 0.04260685 -0.057215724 0.059581574
0.039866067 -0.005124515 0.1365853 0.09505569 0.04395021 -0.03669663 0.19220091 0.15351233
-0.058214545 -0.009696953 0.039433934 0.107249334 -0.0650737 0.25194743 -0.022120494 -0.044528905
-0.027968012 0.007847348 -0.012639409 -0.082235225 0.015465151 -0.051700633 0.03479729 0.04529219
0.10892766 -0.047356892 -0.020943627 0.168689 0.033003435 0.10085717 -0.09613075 0.04068304
-0.0081959795 -0.13338353 0.03170102 -0.08228175 -0.02440323 0.07732199 -0.04450328 -0.011879094
-0.050028067 -0.082709655 -0.061765157 0.022832068 -0.040678114 0.08165033 0.068659276 0.046272065
0.123692915 0.013095229 0.10892188 0.011131213 0.041215133 0.15303926 -0.06676061 -0.17683718
0.19148284 -0.033073165 -0.07548996 -0.09030395 -0.04855741 -0.031766515 0.009416631 0.06448739
-0.016614558 -0.06763653 0.101308964 -0.029695578 0.08277183 0.013546035 -0.10395677 0.07740604
0.14741212 0.029193638 0.1879108 0.042312615 -0.16560955 0.20872006 -0.030769847 0.0530525
0.00172666 -0.047501028 0.052983653 -0.08089521 -0.16743955 -0.060611267 0.048987605 0.0056848326
0.018789133 0.03364958 -0.004350843 -0.013839778 -0.03469075 0.07953242 0.11416635 -0.054761518
-0.03380917 -0.017938612 0.015965177 0.022017326 -0.0034772935 0.009640079 0.108411126 -0.055696864
-0.07157133 0.0006542408 0.10996721 -0.099655986 -0.26902774 -0.06579848 -0.10914304 -0.070407204

bias f4 [128]
00000000: 3909 70bd f706 ab3d d170 4fbd 803b b53b
00000010: 702d 02be f194 33bd b2fd 30bd 73fc 88bb
00000020: 7830 f0bd eb70 383c 64b4 85bd 5256 24bd
00000030: c29a 34bd 0284 dabc ab7f 82bb 298f 3cbd
00000040: a397 c0bd 07e9 4c3c fdbd 0fbc 0e81 36be
00000050: a574 eebd 69c1 d2bd 1a21 09be 950f 12be
00000060: d328 90bc 9f78 bebd 5741 32bc 8efb 91ba
00000070: 8bc7 97bd 213a 54bb db83 87bd eb0b 2cbd
00000080: b84a 06be 0a90 f6bd 41f6 eebd 3dc9 56bd
00000090: 1516 95bd a1e7 12be aa18 2cbd abba a7bd
000000a0: 9bf4 693c 73c0 b63b 0f2a 46bc a42e aabd
000000b0: 94b5 b8bd 4939 8bbd c147 33bd 3bb0 98bd
000000c0: 9ab4 5ebd 0c6b 2cbe 5515 d5bb d1db dd3c
000000d0: b649 443c 8125 97bd 75eb d0bd a3f4 82bd
000000e0: 5fff c3bd 22a1 a5bd b039 753c 8109 46bc
000000f0: 91f8 093d 8959 9cbd 6067 ce3c 207f a5bd
00000100: dc5c bdbc 8d43 46bd 159c 0fbd 264b 32bd
00000110: 1f49 fbbc eee3 bcbc 96a7 49bc d14c f33c
00000120: 3a32 c7bb afe5 0cbe ae3e e0bc dcf8 1ebd
00000130: 1f15 a7bc 26fe 6ebd 478e a6bd b3d5 dcbd
00000140: b203 08bd 2fb8 d3bd b86e 9ebd 69c8 86bd
00000150: 6c65 f7bc 4b47 22bc bf40 33bd 66c7 cfbc
00000160: a483 d8bc d42c e1bd 8342 62bd a459 52bd
00000170: 3783 80bd 4533 bf3c 5dd8 1bbc e532 6dbd
00000180: a4a1 53bc 32e4 a5bd ec03 6e3b 0a3b 09bb
00000190: 395d 033c a2e4 f93b 596b 87bd 925b 63bc
000001a0: f4b6 01bc 0851 31bd 0bc8 b4bd 7803 14be
000001b0: ac6b 66bd 0a1b 93bd 0752 29bd 6bf4 d3bd
000001c0: 4c74 21bd 16c0 343d dc8a 9bbd 87ab abbc
000001d0: ce7f 54bd 9097 90bd 1246 93bd 5eeb cfbc
000001e0: 8558 1fbd d66f 9bbd e12c 3fbd f2eb bbbd
000001f0: 45b6 bfbd 6ed7 f5bd b3cb 83bd cc33 cfbd
-0.058602545 0.08350938 -0.0506447 0.0055307746 -0.12712646 -0.043843213 -0.043210693 -0.004180485
-0.11727995 0.0112573905 -0.065285474 -0.040121384 -0.0440929 -0.026674274 -0.0039825044 -0.046034966
-0.094039224 0.01250673 -0.008773324 -0.17822668 -0.11643342 -0.10290796 -0.13391533 -0.14263757
-0.017597592 -0.093003504 -0.010879836 -0.0011137591 -0.07411107 -0.003238328 -0.06616946 -0.042003553
-0.1311444 -0.12039192 -0.11668063 -0.05243801 -0.072796024 -0.14346172 -0.04201571 -0.08189901
0.01427951 0.005577141 -0.0120949885 -0.08309677 -0.09019008 -0.06798036 -0.0437696 -0.07455488
-0.054371454 -0.1683771 -0.006502787 0.027082356 0.011980465 -0.073802 -0.1020116 -0.06394317
-0.095701925 -0.08087374 0.014967367 -0.012087227 0.033684317 -0.07634265 0.025195777 -0.08080888
-0.023115568 -0.048404265 -0.03506096 -0.0435287 -0.030674515 -0.023057904 -0.012308022 0.029699715
-0.0060789855 -0.13759492 -0.027373638 -0.03881155 -0.020395814 -0.058347844 -0.08132606 -0.107829474
-0.03320665 -0.103378646 -0.07735962 -0.06581194 -0.030199729 -0.009904693 -0.04376292 -0.025363635
-0.026429959 -0.109948784 -0.05523921 -0.05135502 -0.06275027 0.023339877 -0.009512034 -0.057909865
-0.012916956 -0.081001654 0.0036318256 -0.002093973 0.0080178315 0.007626132 -0.06612272 -0.0138768125
-0.007917155 -0.043290168 -0.08827218 -0.14454448 -0.056255028 -0.07182892 -0.041337993 -0.103493534
-0.03941755 0.0441285 -0.07594845 -0.020955814 -0.051879697 -0.07060158 -0.07191099 -0.025380787
-0.03890278 -0.075896904 -0.04667366 -0.09175862 -0.09360937 -0.120039806 -0.06435337 -0.10117301

weight f4 [128, 128]
00000000: f1b7 e3bc 7a28 7abd 9d75 893d 1ec4 6fbc
00000010: f7b3 f93d 3026 2cbd 2d88 4dbd 2e7b f93b
00000020: b294 7c3d 0ba6 583a ea68 093d c9a2 fc3c
00000030: 3026 223e f5be af3d 812d 083e a8bc ab3d
00000040: f64d 0e3d 2671 e73c 03df 3c3b 841c 2f3d
00000050: be6a 043d eae1 0c3d 5796 863d 2cf9 d73b
00000060: 8626 07bd 8ae0 833d 2218 b5bc 7634 fa3d
00000070: 6566 d2bc f9ac 36bd 548d c3bd 4a9c a7bd
00000080: 7de1 3fbd 5433 163d 8f6e cdbc 5c0a a2bd
00000090: ab13 8c3d c064 73bd 568d 9ebd b95e 7abc
000000a0: 4436 a83c 328c 02be 3827 07bd 6392 a13d
000000b0: 8a8d 943d 3865 833d 06cf de3d 1255 0cbb
000000c0: f5d6 2ebd f3e5 63bd f938 673d 5680 90bb
000000d0: 5077 b53b dc2a 4e3c 1847 9c3d 6364 de3b
000000e0: 6826 2bbb f9be a0bc 0c39 123d 3dc8 bbbd
000000f0: d050 2f3d 8b96 693d 25f8 e23c 6a6f 7f3d
00000100: 0a28 bd3c 3118 143e a546 6bbd 2a09 0ebd
00000110: e44c 0e3d e2d3 773d ea6a 0e3d b89b 4bbc
00000120: 1ed8 0cbc b4e4 363d 065a 893d ad5d 52bc
00000130: 2f23 8bbc 0597 37bd 0081 90bd 1bea adbb
00000140: 8965 20be 0c1e 01bd d2d0 ea3d 8d1b 26bd
00000150: cafa 393d 61e0 55bc cfa1 6f3e bd49 0a3d
00000160: e641 6a3d 7886 9c3d 9a26 c8bd 6730 223d
00000170: 0671 24bc 0212 abbc ccc1 d43d fbdc 56bd
00000180: 05b1 c7bc b496 1c3d 7346 723d 326a 80bd
00000190: f492 d33d 750a bbbc fc9e 343e ecec 0d3d
000001a0: 2816 77bd c8ec 82b9 78b2 e0bd c380 4fbd
000001b0: 9d29 c93d 14b6 d93d 0f73 873d 4bf6 093b
000001c0: 14e2 b0bd 7817 59bd 00dd 89bd 9d97 0d3d
000001d0: 61e3 b43c 90ab 9bbd 01d5 a93d c0dd de3d
000001e0: 12ac 03be 5f3b e33d 1bb6 12bd 4b2d 8b3c
000001f0: e2c4 fb3d 6d4b 4b3c e3c7 203c 3956 8b3b
00000200: ae3e cfbd 08b6 5e3a be35 273b e570 2b3d
00000210: 55a0 52bd 26f7 8e3d cc98 d2bc a64d d7bb
00000220: eec7 343d 466a efbc abb4 0fbc 7e19 753d
00000230: c38d c7bd fd95 c13c 4e59 543c e2bc c93a
00000240: 9309 2c3c 1545 10be fd02 5abd da71 bb3b
00000250: 9ba0 153e 91e5 48bd e62a 54bd 0653 21bd
00000260: 603b 0b3c 3492 47bd 77ef f0bd e06f edbc
00000270: f8f2 a63c dc41 4dbd 2f01 aa3d 59ce ed3d
00000280: feef 363d a617 983d 39f3 c73c d928 c13d
00000290: 25b3 af3b 99bd 9abc adf2 28bd a428 613c
000002a0: 8f6e 0bbc ae55 513d 28e0 993c a218 893c
000002b0: 9691 633d 5fda adbd 26fc c13c a60d d03d
000002c0: 548c febc 18c0 653d 89ad 5bbd e3b3 a7bd
000002d0: 5ea7 ac3c 898c 32bd a068 cc3c 6a2d 42bd
000002e0: ca10 4b3c eb9d 823d 0001 e53c 17a9 d73c
000002f0: 0863 923c 81aa 2a3d 75dc 023a 5ed5 88bc
00000300: 6b29 ebbd 0631 143c b048 46bd 9234 373c
00000310: f427 b83d a538 403d adf1 ce3c 5076 073d
00000320: 7f15 e8bc b4a8 b53d ca46 b03d 4466 8f3d
00000330: a263 053d 0c09 653d a66e 95bd d0f4 21be
00000340: 87a0 abbd 594e 93bd 80ff 333b 65e5 80bd
00000350: 9b06 903c 43b7 063c 46e1 f0bc 0c36 13bd
00000360: 96f5 b8bc 4665 e43c 5de9 103e 4223 48bd
00000370: 6522 9abd 1451 043e 9291 073d dfea 5f3d
00000380: 6743 5f3d b313 83bc 3710 37bd 85a8 e0bd
00000390: 724f 303c 6436 8c3b 71ac 833d 4a8c 7ebd
000003a0: 30f1 e43c 8c1f dfbd 4c0a 033e 7782 803d
000003b0: 4653 abbc 0fa5 aa3d e6cd a1bd 67cc 6ebb
000003c0: 4e59 97bd 9acf 24bd afe6 f03c 082f 34bc
000003d0: b1b7 c0bc ae3c 62bb 5e50 acbd bb2a 02be
000003e0: cf3c 8d3d 67b4 ebbd 4be9 39bd 3a21 06bd
000003f0: ccbe 913d 9b7a 423a 02d8 373d 99a0 11be
-0.027797671 -0.061073758 0.06711886 -0.01463416 0.12192529 -0.042028606 -0.050178695 0.007613561
0.061665244 0.00082644884 0.03354732 0.03083934 0.1583488 0.08581344 0.13298608 0.08385593
0.034742318 0.028252196 0.0028819449 0.042751804 0.03232836 0.034395136 0.06571644 0.006590983
-0.032995723 0.06439312 -0.022106234 0.122170374 -0.025683591 -0.044598553 -0.095484406 -0.08184107
-0.0468459 0.036670044 -0.025077133 -0.07912132 0.06839689 -0.059422255 -0.077418014 -0.015281373
0.020533688 -0.12748793 -0.032996386 0.07889249 0.07253559 0.0641579 0.1087933 -0.002141301
-0.042685468 -0.05563922 0.056450818 -0.00440983 0.005537905 0.012583461 0.076307476 0.0067868694
-0.0026115421 -0.019622313 0.035698935 -0.09169052 0.04280168 0.057028335 0.027706215 0.062362112
0.023090381 0.14462353 -0.05744042 -0.03467671 0.034741297 0.0605048 0.03476993 -0.012427263
-0.008596448 0.044651702 0.06706624 -0.012839717 -0.01698455 -0.044821758 -0.07055855 -0.0053074486
-0.15663733 -0.031522796 0.114656106 -0.04055362 0.045405187 -0.013053984 0.23401569 0.03376173
0.057191752 0.076428354 -0.09772988 0.03959694 -0.0100367125 -0.02088261 0.10388526 -0.052456837
-0.024376402 0.03822966 0.059149217 -0.06270255 0.103307635 -0.022832135 0.17638773 0.034649774
-0.060323864 -0.00024971948 -0.1097154 -0.050659906 0.0982239 0.10630432 0.066137426 0.0021051343
-0.08636871 -0.053000897 -0.067316055 0.034568418 0.022081079 -0.07601082 0.082925804 0.10882139
-0.12858608 0.110953085 -0.0358182 0.01698937 0.12293412 0.01240812 0.009813282 0.004252222
-0.10119377 0.00084957527 0.002551421 0.04185571 -0.051422436 0.069807336 -0.025707625 -0.0065705357
0.04413598 -0.02922548 -0.008771102 0.059838764 -0.09743836 0.02363109 0.012960745 0.0015391374
0.01050033 -0.14088853 -0.053225506 0.0057203593 0.14612047 -0.049047057 -0.051798724 -0.039385818
0.008498043 -0.048723415 -0.11764424 -0.02898401 0.020379528 -0.050111637 0.08301007 0.11611623
0.044662468 0.074263856 0.02440797 0.09431619 0.005361932 -0.018889235 -0.04124706 0.0137426
-0.008510246 0.0511071 0.018783644 0.016735379 0.055558763 -0.084889166 0.023679804 0.10158853
-0.031072773 0.056091398 -0.053632293 -0.081886075 0.0210759 -0.043591056 0.024952233 -0.04740659
0.01239414 0.06377777 0.027954578 0.026325746 0.017869487 0.04166651 0.0004991957 -0.016703304
-0.11482509 0.009044891 -0.048409164 0.011181967 0.089919955 0.04692902 0.025261724 0.033071816
-0.028330563 0.08870068 0.08607252 0.070019275 0.03256572 0.05591683 -0.07296495 -0.15816045
-0.083802275 -0.07192678 0.0027465522 -0.062937535 0.017581275 0.008222404 -0.029404294 -0.035940215
-0.022578042 0.027880322 0.14151521 -0.04886175 -0.075260915 0.12921554 0.03309781 0.05466735
0.05450764 -0.016000604 -0.044693198 -0.109696425 0.010761129 0.004278945 0.06429375 -0.06214551
0.027947038 -0.10894689 0.12796897 0.06274884 -0.020913731 0.08332264 -0.079006 -0.0036437751
-0.073900804 -0.040237047 0.029406874 -0.010997541 -0.02352509 -0.0034521031 -0.08413766 -0.12711613
0.06896364 -0.115090184 -0.0453885 -0.03274653 0.0711647 0.00074187823 0.044883735 -0.1422142

bias f4 [128]
00000000: fd2d 6fbd 2032 81bb b368 7c3c 86c9 2abd
00000010: 729b 29bd 8d3d 8a3d c4d0 a5bd 527f 8bbd
00000020: 3dfd 5cbc 73e6 b23b ee9d 46bd 3acd af3c
00000030: 53a4 85bd e6f4 583c 8827 8cbb 7f3e 94bd
00000040: 801c a9bd a015 f7bd 1e7c a03c 080f 27bd
00000050: fd11 233c 9b21 34bd 0fce 16bd e282 79bd
00000060: a597 70bc e488 7abc de63 303d ea0e f3bc
00000070: 5af4 83bd b1f3 993b c3be b7bd 2468 993d
00000080: 96f2 73bd 7522 58bd 59c9 68bc d5b4 b1bd
00000090: b03d 38bd e43d 2dbd 3a7e 0cbd 3087 c7bd
000000a0: af16 b9bd 3cf9 6abd a532 8dbb d0e1 02bd
000000b0: 7496 f23b 924b 3fbc 5713 9f3c 79fe 80bd
000000c0: 2c10 78bd d1f7 d2bd e1c4 b7bd 0210 77bd
000000d0: b972 1abd 5146 b7bc 62af 92bc eda2 56bd
000000e0: 6784 653c 7304 d0bc 9866 63bd c212 f2bc
000000f0: d230 f43c c901 933c 6e00 603c 5d3f aabd
00000100: adf4 81bd f33e a6bc badc d2bd c53d d2bd
00000110: 64fa e2bc a268 85bc fc8c 4cbd 94d2 c8bd
00000120: c25b 4cbd 12e3 29bd e613 19bb 4c2e f3bc
00000130: 0b05 903d b9ca 89bd 9e56 be3b 35ab 88bc
00000140: 043d afbc 384a 763c 7898 edbc b44f 05be
00000150: e8a1 d9bc 9ad4 e13c 4e6c 7fbc d9d2 2ebd
00000160: 2241 e73b 4bff 8ebd d4c4 cdbd 79ef b8bb
00000170: a01c 3fbd b153 cabc 8c3a d5bc 0f7f 2dbe
00000180: 4f0f 1cbd 8a46 70bd 1c4e bcbc f4e4 6abd
00000190: 9555 46bc 5903 4cbd 646c 29bd a9ac 51bd
000001a0: f8bb 443d 8aa2 94bd ca91 c4bd 60cd 68bd
000001b0: 7b37 abbc 110c 80bd 6931 953b 4cf0 f6bb
000001c0: 0172 b7bc 9b06 e5bb 586b a2bd c9df 1abc
000001d0: 897e 8139 8c15 91bd 039b 16bc 760b 71bd
000001e0: 2035 3dbc 7fed 543b a3ea 58bd cc4e 5bbd
000001f0: eeee f7bc 5233 46bd b184 45bd e4f7 e13b
-0.058393467 -0.003942743 0.015405822 -0.041696094 -0.04140801 0.06750021 -0.080964595 -0.06811394
-0.013488111 0.0054596006 -0.048490457 0.021460164 -0.06525483 0.013241982 -0.0042771734 -0.07238483
-0.08257389 -0.120646715 0.019590434 -0.04078582 0.009953019 -0.04397736 -0.036817607 -0.060915835
-0.014684592 -0.015291426 0.04306399 -0.029670198 -0.06443091 0.0046982397 -0.08971932 0.074905664
-0.05955752 -0.052767236 -0.014208161 -0.08677069 -0.044980705 -0.04229535 -0.034300067 -0.09742582
-0.0903753 -0.057366595 -0.004309016 -0.031953633 0.0074031893 -0.011675732 0.019418402 -0.06298537
-0.060562298 -0.103011735 -0.089730985 -0.060318 -0.037707064 -0.022372397 -0.017905895 -0.052401472
0.014008618 -0.025392747 -0.055517763 -0.02954996 0.029808436 0.017945187 0.013671977 -0.08312867
-0.06345496 -0.020293688 -0.102960065 -0.10265688 -0.027707286 -0.016285244 -0.04993914 -0.098057896
-0.049892195 -0.041476317 -0.0023357808 -0.029685162 0.07032212 -0.067281194 0.0058086654 -0.0166832
-0.0213914 0.015032344 -0.029003367 -0.13018686 -0.02656646 0.027567197 -0.015589787 -0.04268155
0.007057325 -0.06982287 -0.100473076 -0.0056437817 -0.04665816 -0.02469811 -0.026028894 -0.16943
-0.038100537 -0.05866102 -0.022986464 -0.057347253 -0.012105365 -0.04980788 -0.041363135 -0.051190052
0.048030823 -0.07257564 -0.095981196 -0.056836486 -0.020900479 -0.062523015 0.0045530093 -0.00753597
-0.022393228 -0.006989313 -0.079306304 -0.009452769 0.00024699073 -0.07084188 -0.009192231 -0.05884882
-0.0115483105 0.0032490192 -0.052958142 -0.053541943 -0.030265298 -0.048388787 -0.048222248 0.006896006

weight f4 [12, 128]
00000000: 8b60 4ebc 31d5 48bb 1629 0c3c cc68 90bb
00000010: 0608 d3bc 68d3 bb3a a16d 00bd d1dc 063d
00000020: 7bcd dcb9 b440 60bc aacc 2f3c 16b1 223c
00000030: 89ed 2c3c 2927 f7ba 96cd 943c a6de b8bc
00000040: 5ae8 34bc d057 d93c d05e 17bd a9ea 4d3c
00000050: 2c78 86bd 52af 693d cf68 a63c b255 2d3b
00000060: 9d47 9d3c fb59 5dbc 53c9 12bc e355 ab3c
00000070: 2330 403c 43f2 64bc 5337 433c 028b 93bd
00000080: 0ef6 bd3c c78b 81bc 1f7f 2e3a 680f 12bb
00000090: b1c4 6bbc 8d44 1a3d 5ea7 b33c 3cbd 243c
000000a0: 4818 75bb d6d9 0f3d b5e6 e2bc 5990 7e3c
000000b0: b859 7ebc 4b56 103d e9fb 86bb 4ae5 b83c
000000c0: e6ac 063d cf13 d23b 9c77 07bb 0fc1 b8bc
000000d0: 6bda 3f3c 7377 273c e349 acbb c82c 84bc
000000e0: 3739 f3ba fbb2 c43c c204 d43b 10f7 88bc
000000f0: c6ba e8bc 013c c23b 210a 82ba 8029 ca3c
00000100: 95e0 413c 50d8 983c b329 6bbc c96b 203c
00000110: cc1a a6bc b69c 91bb ad0d 7d3c dacb 2f3d
00000120: c3c5 2b3d 71ea c3b9 e438 88bc d0f7 82bc
00000130: 9c25 5cbc 98e1 b6bc 0656 5cbd b635 b23b
00000140: 9aff d03b d0a0 69bc ae07 24bc 281b 38bd
00000150: a268 15bd c487 85bc 3beb c73c b788 633c
00000160: 1a0b fe3c 2dce 0d3d cfdd f43c f1e3 04bd
00000170: b307 35bc 59ec 3839 a2d6 4ebc a746 203d
00000180: a495 2f3a 2dd4 213d 0c02 173d cf02 583d
00000190: e69f f5bc 2d30 74bb df5d 97bc 78ab 06bd
000001a0: e0c5 a1bb f54d 913c d48f 1b3c 66cb 77bc
000001b0: bcbd 6ebd 2044 a8bc f41c d13c 2e14 8c3c
000001c0: 7841 6dbc f3ed b6bc 8ddf bb3c 9c85 c8bc
000001d0: ced8 f13c 1374 363c 21b1 efbc 0967 45bc
000001e0: de1a 19bc a7ba c53c 6f1c b7bc 4c5d 3c3d
000001f0: bcf6 d6bb 87dc daba 2b01 143c 9a44 5fbd
00000200: 2035 753c b58d c03c 9c5e 6fbc 0bfa 713b
00000210: 0c00 8abc cab5 62ba 92e1 00bb 51b6 663c
00000220: 02ff 3abd 0703 c2bc 4f37 273c ed6d cfba
00000230: 1221 383d b1f4 683c 196d 8ebb bae8 8c3c
00000240: d902 8dbc cbc8 b5bd c267 8b3c ca09 883c
00000250: 1237 023c ff66 79bd 4f85 bd3c cb03 3dbc
00000260: b99b 9f3c 3dbd 89bc 64e2 c4bb e1dc c03c
00000270: 7c2f ccbb 9a9b 3ebb e97c bb3b 26f3 943c
00000280: 0425 2d3c 7df9 fe3c 0771 20bd 83e8 4abc
00000290: 7438 953c 30be ae3b f6b9 133d b4c8 29bc
000002a0: f617 513c dac4 85bd efcd 0cbd 48dc b23b
000002b0: 3f35 113c 9d9c 203c a99b c93b 447d dc3b
000002c0: 26be c8bc 9864 5b3d b8aa e63b 50de 53bd
000002d0: 6cc6 cebc 9eb2 e8bb 15ca 153a 89be eb3c
000002e0: 3ccc e6bc 2f87 953c e85c 543b 22b3 8dbb
000002f0: 17ab 6abd 3682 00bb 7d3c 953d 22a1 5f3d
00000300: 00a0 333c d728 94bd 753a eb3c 1883 4d3d
00000310: aba7 85bd 685b 0e3d 2e79 a03c 8d67 a93c
00000320: 3c7e 91bc 75eb e43c d903 0dbd 5649 3d3d
00000330: 97e9 3a3c 8e67 973b 7d4a 6abc 51f4 473d
00000340: 60c4 193b 55d4 3fbd b59d a9bb 2918 a0bd
00000350: fcf6 e53a 4d65 213d 44e8 88bc 135c 043d
00000360: fed2 b53c 449e 513c 3d56 26bd 2674 ca3a
00000370: 0ce2 2a3c 1d34 4cbd b7a0 02bb 07e4 26bd
00000380: 4bcb f13c 87f2 19bd 4551 28bc 3909 893b
00000390: c66f c53c 3c7a f73b dad6 4ebc e740 4ebd
000003a0: 58a7 bc3c 2d28 ee3c 7cc2 423c c876 b9bc
000003b0: 0611 553c 8ea6 ec3a f9c4 bc3c 8044 73bb
000003c0: def4 883c db3a 743a cfe5 b03b ecd4 b23b
000003d0: 99cb 1dbc 1c12 b2bc 637d 863c d4ab 8b3c
000003e0: 99e4 fb3b 0614 84bc 6f73 18bd 1e31 a53c
000003f0: 0bd3 04bd 94d5 303c 4136 7e3a 6b25 52bb
-0.01259626 -0.003064465 0.0085547175 -0.004407024 -0.025760662 0.0014329972 -0.03135455 0.03292543
-0.00042114765 -0.013687301 0.010729948 0.009929916 0.01055468 -0.0018856275 0.018164437 -0.022567105
-0.011041725 0.02653113 -0.036955655 0.012568154 -0.0656589 0.057051964 0.020313649 0.0026448783
0.019199187 -0.013510223 -0.008959132 0.020914977 0.011730227 -0.013973775 0.011915046 -0.07204248
0.023188617 -0.015813721 0.0006656516 -0.0022287015 -0.014390157 0.03766303 0.021930393 0.010054883
-0.0037398506 0.035119854 -0.0276979 0.015537345 -0.01552432 0.035238545 -0.0041193855 0.022570271
0.032879733 0.006411053 -0.0020670658 -0.022552995 0.01170979 0.01022135 -0.0052578314 -0.016134635
-0.001855648 0.024011126 0.0064702937 -0.016719371 -0.028409373 0.005927563 -0.0009921232 0.024677992
0.01183333 0.018657833 -0.014353204 0.009791323 -0.02027645 -0.00444373 0.015445155 0.042919017
0.041936647 -0.0003736797 -0.01662869 -0.015987307 -0.013436701 -0.022324368 -0.053792976 0.0054385317
0.0063781263 -0.014259532 -0.010011597 -0.044947773 -0.03647674 -0.01630009 0.024404159 0.013887576
0.031011153 0.034620453 0.029890923 -0.032443944 -0.011049199 0.00017635654 -0.012624415 0.03912988
0.00066980184 0.039508987 0.036867186 0.052737053 -0.029983472 -0.003726016 -0.018477378 -0.03287837
-0.0049369186 0.017737368 0.0094947405 -0.015124178 -0.058286414 -0.020540297 0.025526501 0.017099466
-0.014480941 -0.02233026 0.022933746 -0.024477772 0.029522326 0.011136073 -0.029259266 -0.012048491
-0.009344785 0.024136854 -0.022352425 0.045987412 -0.0065601747 -0.0016697802 0.009033482 -0.054508783
0.014966279 0.023505071 -0.014609959 0.003692272 -0.016845725 -0.00086483045 -0.00196657 0.014081554
-0.04565335 -0.023683084 0.010206058 -0.0015825607 0.044953413 0.014218495 -0.0043465015 0.017200816
-0.017213272 -0.08876189 0.017017249 0.01660623 0.0079477 -0.06088924 0.023134856 -0.011536549
0.019483434 -0.016813869 -0.006008433 0.023542823 -0.0062312465 -0.0029084445 0.0057216776 0.018182348
0.010567907 0.031124825 -0.03917029 -0.012384537 0.018215396 0.0053327307 0.036066018 -0.010362793
0.01276206 -0.06531687 -0.03437608 0.0054583885 0.0088627925 0.0098029645 0.0061525893 0.0067288
-0.024504732 0.05356273 0.007039394 -0.051725686 -0.0252411 -0.007101371 0.00057140115 0.028777378
-0.028173558 0.018252937 0.003240401 -0.004324333 -0.05729207 -0.0019608862 0.07286928 0.054597028
0.01096344 -0.07234352 0.028714398 0.05017385 -0.06526121 0.03475514 0.019589033 0.02067926
-0.017760389 0.027944306 -0.034427498 0.046212517 0.011408231 0.004620499 -0.014299986 0.048816983
0.0023462996 -0.046833355 -0.005176271 -0.07817108 0.001754492 0.03940325 -0.016712315 0.03231437
0.022195335 0.012794081 -0.040609587 0.0015445992 0.01042987 -0.049854387 -0.001993222 -0.040744808
0.029515883 -0.037584808 -0.010273282 0.0041820076 0.02410115 0.0075524133 -0.012624467 -0.050354864
0.023029014 0.029071892 0.011887189 -0.022639647 0.013004547 0.0018055008 0.023043143 -0.0037119687
0.016718324 0.00093166315 0.005398489 0.005457511 -0.009631061 -0.02173715 0.01641721 0.017049707
0.007687163 -0.01612283 -0.03721946 0.020165022 -0.03242783 0.0107931085 0.00096974155 -0.003206576

bias f4 [12]
00000000: 0065 21bd fb33 973d e96d f3bc 49ee a63d
00000010: a332 1b3b 8935 ffbd 79ba 67bd b8fd 02be
00000020: c47f 9e3c 383b ec3c 9d56 ac3d 5f55 33bd
-0.03940296 0.07382961 -0.029715495 0.08150918 0.0023681305 -0.12461383 -0.05657432 -0.12792099
0.019348033 0.028836831 0.08414958 -0.043782588
